Bioimaging_data2/model.pth (torch, 34375 bytes, 5 tensors)

conv1.weight f4 [64, 1, 9, 9]
00000000: 0781 68bb e229 50bb b313 1abb 8827 b4ba
00000010: 8d8c 7aba b2bf 8bba c2a5 77ba 2a1e acba
00000020: 4834 2dbb 725b 15bb 3486 eaba 185b 5bba
00000030: 5694 6b39 9521 173a dd4f 0a3a 8796 1d3a
00000040: 0c61 9239 219f 62ba 193e dcba b292 c7ba
00000050: b394 84ba c24f 9c39 50e2 a93a b19c bd3a
00000060: 881b ae3a 3340 7f3a d71c 24b8 32e9 17ba
00000070: bf41 97ba 08fe 3dba 79b3 843a 904d 183b
00000080: 8fcf 0e3b bc90 b53a 3797 513a 5d6f ac39
00000090: fe8a 233a 4874 6eb9 6d90 3839 72e1 1f3b
000000a0: ee15 753b b334 583b 2358 083b 8b02 a43a
000000b0: 020c 8a3a 509f 9e3a b1da 8739 52be 6e39
000000c0: 011b 013b 7bbc 413b 95b2 f33a 3206 8a38
000000d0: 6942 f7b9 8b2a 17ba b373 4b3a 424e f439
000000e0: 6fe9 c937 37a2 0e3a cefd 7b3a 181f dcb9
000000f0: 3d79 dfba 46ec c2ba f01a e9ba b4d2 8ab9
00000100: 6767 b9b9 869a 7aba 896c 03ba d0a2 08ba
00000110: b3a9 d1ba 50d1 0ebb ae87 0bbb ee7c 39bb
00000120: 7d4d c6ba d4c3 70ba 6f74 a6ba e9fe 35ba
00000130: e82f 38ba 1bb4 f2ba 708e 1ebb 3c80 58bb
00000140: 2168 8cbb b372 9abb f2d5 54bb b4a6 04bb
00000150: 36cf deba bd40 c4ba 0d84 adba 4d08 afba
00000160: da7b 15bb 8add 6dbb 7c60 42bb b110 04bb
00000170: 019c 91ba 36dc 6bba da7d b6b9 cd95 bfb9
00000180: e5f5 07ba d26b b1ba a666 23bb f57f 0dbb
00000190: 872e cbba 632f 86ba 8f58 21ba 127f cd39
000001a0: a5ea ccb8 dbbf 18ba ea4c 81ba 536a 09bb
000001b0: 90b7 b6ba dd22 39ba cb11 3aba 7ca1 8ab9
000001c0: ef45 053a 33b2 03b8 cec2 41ba f2ce 60ba
000001d0: 83f0 08bb 65f8 86ba 281c 6c38 99b3 9fb9
000001e0: 8957 9cb7 8f5f 1eb9 852e 65ba d0b5 c4ba
000001f0: afac 9aba 98d6 1cbb c54e 45ba 043c 083a
00000200: 13e2 233a 6206 bb39 42cf ecb9 0e2f 86ba
00000210: cde5 4dba e4c4 d9b9 4fc7 eeba 85fa a9ba
00000220: eec5 bb36 1e73 393a 4586 d139 96fd 03ba
00000230: 617f 03ba 3d19 4338 0fc0 fbb9 cd09 05bb
00000240: 7397 e4ba 71a4 34ba 6ca4 9ab8 6966 ad38
00000250: 3f8e 95b9 81a1 01ba d879 26ba d40a cdba
00000260: 96f7 46bb b128 64bb 22a9 2dbb c870 0cbb
00000270: 3de6 0fbb ed1a 25bb 3f47 4dbb a904 6dbb
00000280: 740d 84bb 8a6d a4bb 2799 1fbd cd95 5fbd
00000290: cdd3 73bc 81cc a83d 415f 9d3d 7155 793c
000002a0: 074f 233d 8b05 69bd 4e0e 8abd ec46 2ebd
000002b0: 2b85 e13c 0906 083d 6646 953c 696b 743d
000002c0: 46e2 403c a537 7f3d a187 20bd 9b97 a33b
000002d0: 50b1 ccbc b0d4 723d c58a 023c 1947 223e
000002e0: 4fe0 4d3c 20e7 8f3d 46a3 a2bc fb5c 9dbd
000002f0: e358 3cbc cb3e 953d 0540 813c 562f f93d
00000300: 7b5f 463d 930d fe3d 0efc 253d 035a f23d
00000310: d8be 243c be64 573c d831 6a3c 4d66 613c
00000320: b9f1 f43c 0acc 2e3d 5cab cf3d 7a21 a13d
00000330: 5c4c e93c 1b14 1d3d 2917 813d 8750 ae3c
00000340: 154b 983d defd ca3d 57da db3d 256b 3d3d
00000350: 5fd8 403d b686 463c e997 c93c 5ca3 ac3c
00000360: 0991 40bd 975a 803c 7a9a d43c f52e 8e3d
00000370: 5562 4dbc 22ae 033e fc12 003e 37e5 3abb
00000380: c16a 043b 0472 693a 508f 01bc 10b5 88bb
00000390: 94bf 503d ffe8 17bd e6e8 973d c166 0abd
000003a0: 8f7c c3bc 0529 b43c 2517 d6bd 7be7 9dbd
000003b0: f905 6abb 8692 a03c 5fe9 bc3c c9dd 953d
000003c0: 71d0 583d 484a d1bd aceb dcbc ebce 7ebc
000003d0: a256 25bb ce40 6c3d 1409 373b eb48 ac3b
000003e0: 71ed 253d d77e c33c 546a 3abc c0c4 39bd
000003f0: ed31 543c 9b9c 02bd cbfd b93c f110 8b3b
-0.0035477297 -0.0031763245 -0.0023510277 -0.0013744691 -0.0009557687 -0.0010661988 -0.0009447002 -0.0013131548
-0.0026428867 -0.0022790101 -0.0017892779 -0.0008367761 0.00022466606 0.0005765197 0.0005276183 0.0006011505
0.00027919596 -0.0008644928 -0.0016803175 -0.0015226214 -0.0010115117 0.00029814063 0.0012961123 0.0014466253
0.0013283351 0.00097370445 -3.9127506e-05 -0.00057949417 -0.001153998 -0.00072476314 0.0010124288 0.002323959
0.0021791195 0.0013852338 0.000799525 0.0003288937 0.0006238668 -0.00022740767 0.0001760141 0.002439585
0.0037397104 0.0032990396 0.0020804487 0.0012512965 0.0010532143 0.0012101922 0.00025912144 0.00022768349
0.0019699933 0.0029561806 0.001859265 6.581507e-05 -0.0004716099 -0.0005766532 0.0007761076 0.00046597613
2.4069768e-05 0.0005441042 0.000961271 -0.00041984837 -0.0017049682 -0.001487144 -0.0017784517 -0.00026478397
-0.0003536299 -0.0009559769 -0.00050134264 -0.0005212249 -0.0015996009 -0.002179224 -0.0021290588 -0.0028303224
-0.0015129294 -0.0009184454 -0.0012699495 -0.00069425866 -0.00070261816 -0.001851681 -0.0024193786 -0.0033035418
-0.004284874 -0.0047133802 -0.0032476154 -0.0020240964 -0.001699901 -0.0014972907 -0.0013238207 -0.0013353914
-0.0022809417 -0.0036295378 -0.002965956 -0.002015155 -0.0011109115 -0.00089973526 -0.00034807512 -0.0003654197
-0.00051864824 -0.0013536161 -0.002493301 -0.002159116 -0.0015501537 -0.0010237511 -0.0006154859 0.00039195322
-9.771184e-05 -0.00058269285 -0.0009864841 -0.0020967915 -0.0013940204 -0.0007062385 -0.0007097988 -0.00026441726
0.0005083968 -3.1398795e-05 -0.0007391394 -0.0008575759 -0.002089531 -0.0010297416 5.6293007e-05 -0.00030460654
-1.863741e-05 -0.00015103653 -0.00087425887 -0.0015007798 -0.0011800731 -0.0023931619 -0.0007526691 0.00051969313
0.0006251644 0.00035672175 -0.00045167847 -0.0010237412 -0.00078543724 -0.0004153616 -0.0018217358 -0.0012968337
5.5960763e-06 0.0007074344 0.00039963625 -0.00050350407 -0.00050162344 4.6515128e-05 -0.00048017545 -0.0020300031
-0.0017440155 -0.0006890959 -7.373918e-05 8.268358e-05 -0.00028525476 -0.00049450254 -0.00063505536 -0.0015643486
-0.0030359975 -0.0034814293 -0.0026498516 -0.0021429528 -0.00219573 -0.002519305 -0.0031322984 -0.0036166108
-0.004029924 -0.005017941 -0.038964417 -0.05458622 -0.01488204 0.08242131 0.07684184 0.015218125
0.03987029 -0.05689005 -0.0674101 -0.042548105 0.02752932 0.03320888 0.018222045 0.059672747
0.011772698 0.062308926 -0.039191846 0.004992438 -0.024986893 0.059284866 0.007967656 0.15847434
0.012565686 0.070265055 -0.019853245 -0.0768375 -0.011495802 0.072873674 0.015777597 0.12167232
0.0484309 0.12404933 0.04052358 0.118335746 0.010055266 0.013146577 0.01429411 0.013757301
0.029900419 0.042675056 0.10140106 0.07867713 0.028478794 0.038349252 0.063032456 0.021278633
0.07436196 0.099117026 0.107350044 0.04624476 0.047081348 0.0121170785 0.02460857 0.02107399
-0.047013316 0.015668197 0.025952566 0.0694255 -0.012535651 0.12859395 0.12507242 -0.002851797
0.0020205232 0.0008905234 -0.0079077035 -0.004171975 0.050963953 -0.037087437 0.07417469 -0.0337894
-0.023863105 0.021992216 -0.10453633 -0.07710167 -0.0035709126 0.019601118 0.023060499 0.07317693
0.05293316 -0.10219246 -0.026967846 -0.015552263 -0.002522864 0.05767899 0.0027928995 0.005257716
0.040509645 0.023864193 -0.01137789 -0.04535365 0.012951356 -0.031887632 0.022704026 0.004243963

conv1.bias f4 [64]
00000000: 567c dcbc 22a4 e4bc c984 2abd b9d5 c23e
00000010: 2aeb 61a4 7f51 01bd 42f8 353e a4e6 91ba
00000020: c657 e3bd 92e4 59b4 698f 85ba 01ce 563e
00000030: f625 133f 8f0f 5cbd 09ac 21bd 7496 81a5
00000040: ee82 97b5 6d44 8492 d133 99b9 54a0 05b2
00000050: 325a 86bb 2d7b b0b6 e391 c6bc c09a dcbc
00000060: 7e15 75bd eea6 84af fb87 b7bc a1e6 8f92
00000070: 9798 afbb d85a 968d d890 02ba c557 b33e
00000080: f176 afb6 8dd6 49b6 7228 8ab0 d9b6 989f
00000090: 562b 409f 26a0 09bd 5223 a13e 1995 e1b4
000000a0: b8d9 b199 14fe 4bbd 0cef a8bd adf3 73b3
000000b0: 146e 02be 8fc9 d4b4 13c5 48ab 0ed8 25bb
000000c0: 5bb4 8dbd ace9 41bd dadb 013d 0cdc fe3d
000000d0: 4c5a 12bd bacc 7db0 35d4 bfbb dfd0 75bc
000000e0: 7e54 d3ad bab9 79bc 6983 81bc 5ea2 20b9
000000f0: 3249 30b6 8599 2bbd 66cd 2ab1 6ec2 47b7
-0.026914757 -0.027910296 -0.04163054 0.38053682 -4.898829e-17 -0.03157186 0.17770484 -0.0011131358
-0.11100726 -2.0292853e-07 -0.0010189834 0.20977022 0.574798 -0.053725775 -0.039470706 -2.2479884e-16
-1.1288482e-06 -8.347239e-28 -0.0002922104 -7.778073e-09 -0.0041001076 -5.2595483e-06 -0.024239486 -0.02692926
-0.05983495 -2.412927e-10 -0.022403708 -9.081423e-28 -0.0053587663 -9.266334e-31 -0.000498069 0.350279
-5.229253e-06 -3.007622e-06 -1.0052317e-09 -6.4677e-20 -4.0693428e-20 -0.033599995 0.3147226 -4.2018e-07
-1.8389307e-23 -0.049802855 -0.082487196 -5.679947e-08 -0.12737304 -3.963473e-07 -7.132777e-13 -0.002530578
-0.06919166 -0.047341987 0.031703807 0.12444314 -0.035730645 -9.23318e-10 -0.0058541545 -0.015003412
-2.4025445e-11 -0.015242035 -0.015809732 -0.00015319276 -2.626865e-06 -0.041894455 -2.4855011e-09 -1.19065935e-05

conv2.weight f4 [32, 64, 1, 1]
00000000: 4071 0b81 b82d d380 6b9d eeb9 d3f8 1ab8
00000010: 4199 4a01 5e73 ae81 cbff 228c acbe 3781
00000020: bcaa a2ba ccb7 4e00 a0e8 f200 9cb1 2db4
00000030: 3cc3 98b6 7ad5 0601 482e e600 c840 6401
00000040: b017 9981 b967 0880 0015 1e00 1835 0f00
00000050: 901d 0580 4419 0601 1ef8 7a01 6964 3301
00000060: 5ebe c8b9 28f4 4a00 88b1 1e01 4fa5 2280
00000070: 35eb 3101 c49c 5380 64bc 5081 c4e9 0fb1
00000080: 154b 7400 f065 2880 667b 5e81 03ae 2281
00000090: 4649 a281 2aa1 2300 f87d 80b2 6cf5 4781
000000a0: da98 9680 981f 2501 db46 1dba 0494 2080
000000b0: ca05 6980 381b 7f80 806c 7d81 9059 0d80
000000c0: 6fbb 91ba 78c8 e280 2de1 95b2 8d33 071f
000000d0: 158c 4d80 9205 6281 2c1d 1a80 442f 9c00
000000e0: 18b0 1101 7cc4 8d81 9804 e4b4 2630 a481
000000f0: 3070 9b81 00cf 2500 1e61 a201 2072 7400
00000100: 6cdb bc01 8c08 2800 da98 83a6 7836 978f
00000110: 8d82 3b00 1184 a480 7c73 a280 5e05 a800
00000120: 9c63 d6ae 9f71 bc00 8956 b381 d6d6 5200
00000130: b1a8 8e00 a4e1 0681 e268 3c81 155c da80
00000140: f06d 7780 2e8a 0801 24fc 4401 1057 7901
00000150: 74f3 7c80 702c cb00 c322 2801 ff19 2b01
00000160: 1ada 49a7 7a03 a181 8d8f d080 6a04 be80
00000170: a4e7 9000 8052 5800 2fc9 ff80 2860 5a00
00000180: bc3e 1c00 a4ad 6781 4266 d180 7a2c b181
00000190: 7a5b 0981 23f3 a280 05bc 8000 e006 ff80
000001a0: 9f34 e480 4803 4e81 ea7f 40a9 68cd 6881
000001b0: 5424 2081 ac59 4480 1b7d 5b00 7a29 cd00
000001c0: 5ce5 80ad 60ca 0301 a77f 7e00 948a ee80
000001d0: e9ac b500 ce1e 0500 bfb3 5680 e85a 0d01
000001e0: d847 c000 e0c6 5c01 2e4a 6500 d416 f800
000001f0: 248d ae80 2407 1600 2ca9 5081 66a2 3a01
00000200: 01a7 61bb 54c8 4739 f362 323c 22a9 1b3e
00000210: 587c 05a6 20d6 d0bc 0752 b8bc 836f e4b7
00000220: 04e8 02be 3fd5 f7a1 9276 85bc 3b8b 963d
00000230: bb10 ff3e 79de fdbb a7fb 6bbb 112d 9e35
00000240: 5bd4 efb4 8615 7a86 2eb0 6f38 944d 2e2d
00000250: 117e 8cba 8a4f 79b5 9166 d53c 70b1 723c
00000260: 4823 32bd 0459 dfae 2ef5 083b 5838 4981
00000270: f6c5 efba b680 3b01 2c0e 11b7 2270 5bbe
00000280: 393f 6336 e7fe 44b2 b5ba 32b3 bce1 2210
00000290: 5a35 0421 6b02 25bb 923d 25bd f698 5eb7
000002a0: 2eaa b82a 2fbd ae3a 4192 13bd 2d44 4b33
000002b0: 4eb5 eb3c 7563 f1b5 747c 2f01 a7ef 5739
000002c0: a332 d8bc 4354 683c d496 2b3c 4c40 4f3e
000002d0: 0f7b ffba a532 05ad 5da3 2abb 81fd a9ba
000002e0: dc80 35af 6195 87ba c47e 993d e61f 2738
000002f0: a9a4 bdb2 7671 ceba 3d9d c9ae 1e94 d032
00000300: 796b 9e81 9816 4a00 1d41 a4b5 2c84 72b2
00000310: da10 a980 647f ee2a 0764 6730 d4fd 1a01
00000320: 967a c7b6 537b 9381 60ab d080 b390 47b0
00000330: 078b b5b3 a846 dd20 1379 3e9f d082 4800
00000340: 98ce 0680 93c5 d700 9b1e 5a01 90f3 b901
00000350: 9090 6c01 19b8 6f80 b4c8 bfa1 2034 56a3
00000360: 1d79 81b5 2673 8500 71eb c680 fabd 8c00
00000370: 40aa 099b 98fb 2680 5edb 8001 af7c 11b2
00000380: a003 4881 f76e 9801 cf79 3681 7153 ef00
00000390: c424 0001 53b4 401b f5d4 01b1 6779 1600
000003a0: 78f3 ce80 a8ee 0180 672d 12b6 68cc ef80
000003b0: 3d65 5820 1d0b 8881 0d04 3c00 f10d 5c81
000003c0: 1b4d 5436 1921 7c20 4246 75b2 f9c0 b7b2
000003d0: 26de 5781 7c56 9e81 7683 a801 04a6 b901
000003e0: 41ec e400 682c 1f81 6908 5a2e a05d 4101
000003f0: b5cc a780 9894 0c01 ee80 d195 2099 2201
-2.561152e-38 -1.939369e-38 -0.00045512183 -3.6948197e-05 3.7211495e-38 -6.408305e-38 -1.2557001e-31 -3.3748592e-38
-0.0012410502 7.229103e-39 2.230764e-38 -1.6176494e-07 -4.5526813e-06 2.4765075e-38 2.1138767e-38 4.1923465e-38
-5.6237314e-38 -7.71893e-40 2.762598e-39 1.396579e-39 -4.69783e-40 2.463004e-38 4.6095763e-38 3.2949148e-38
-0.00038288807 6.883413e-39 2.914739e-38 -3.181708e-39 3.2678518e-38 -7.678583e-39 -3.833873e-38 -2.094212e-09
1.0679852e-38 -3.709988e-39 -4.0863494e-38 -2.9879548e-38 -5.9614544e-38 3.272057e-39 -1.4958445e-08 -3.672661e-38
-1.3830157e-38 3.032838e-38 -0.0005999633 -2.991834e-39 -9.644804e-39 -1.1672872e-38 -4.6546606e-38 -1.22599e-39
-0.0011118482 -2.0826737e-38 -1.7448281e-08 2.8630004e-20 -7.121585e-39 -4.151364e-38 -2.398188e-39 1.4343293e-38
2.6758635e-38 -5.207716e-38 -4.2471652e-07 -6.0313175e-38 -5.709899e-38 3.472171e-39 5.964876e-38 1.0693858e-38
6.937515e-38 3.676486e-39 -9.131382e-16 -1.491073e-29 5.465127e-39 -1.5108398e-38 -1.4918778e-38 1.5430289e-38
-9.7492875e-11 1.7305833e-38 -6.5878387e-38 7.607579e-39 1.3101156e-38 -2.4773802e-38 -3.4605396e-38 -2.0053171e-38
-1.0967862e-38 2.5078394e-38 3.6180417e-38 4.579654e-38 -1.1474936e-38 1.8658547e-38 3.0881667e-38 3.142639e-38
-2.8012587e-15 -5.914705e-38 -1.915328e-38 -1.7450328e-38 1.3307408e-38 8.111119e-39 -2.3490223e-38 8.299689e-39
2.593899e-39 -4.255258e-38 -1.9230302e-38 -6.508335e-38 -2.5228557e-38 -1.4964571e-38 1.1822392e-38 -2.3420518e-38
-2.095737e-38 -3.7838579e-38 -4.2743512e-14 -4.2759042e-38 -2.9413423e-38 -6.276982e-39 8.40191e-39 1.8841156e-38
-1.4653771e-11 2.4206097e-38 1.1617066e-38 -2.190656e-38 1.6684253e-38 4.70228e-40 -7.962333e-39 2.5962832e-38
1.7658188e-38 4.0550304e-38 9.301996e-39 2.2783392e-38 -1.6030008e-38 2.022942e-39 -3.832494e-38 3.427932e-38
-0.0034431817 0.00019052747 0.010887849 0.15201238 -4.631216e-16 -0.025492728 -0.022500051 -2.7231645e-05
-0.1278382 -1.6793817e-18 -0.01629189 0.07350775 0.49817452 -0.007747468 -0.003600815 1.1785033e-06
-4.4671728e-07 -4.7035587e-35 5.714612e-05 9.907981e-12 -0.0010718723 -9.2875473e-07 0.026049884 0.014812812
-0.043490678 -1.0156678e-10 0.0020898092 -3.6958294e-38 -0.001829325 3.443882e-38 -8.645973e-06 -0.21429494
3.3862436e-06 -1.146666e-08 -4.1613664e-08 3.2122766e-29 4.479395e-19 -0.0025178443 -0.04034192 -1.3267845e-05
3.2803052e-13 0.0013331528 -0.03602815 4.7326626e-08 0.028772976 -1.7984845e-06 3.2231714e-38 0.00020593275
-0.026391333 0.014180246 0.010472972 0.20239371 -0.001949163 -7.57142e-12 -0.0026037314 -0.0012969227
-1.6507634e-10 -0.0010344201 0.07494882 3.984561e-05 -2.2077375e-08 -0.0015750367 -9.168353e-11 2.4281743e-08
-5.819425e-38 6.803932e-39 -1.2237903e-06 -1.4116306e-08 -1.5526244e-38 4.2365688e-13 8.417946e-10 2.8467446e-38
-5.944933e-06 -5.4176233e-38 -1.9163261e-38 -7.260141e-10 -8.453758e-08 3.7485613e-19 -4.0334215e-20 6.659082e-39
-6.25125e-40 1.9815508e-38 4.0062235e-38 6.830776e-38 4.3450073e-38 -1.0259782e-38 -1.2995789e-18 -1.1612001e-17
-9.646498e-07 1.2255428e-38 -1.8267889e-38 1.292512e-38 -1.1387385e-22 -3.580004e-39 4.733455e-38 -8.468461e-09
-3.67368e-38 5.599521e-38 -3.3515514e-38 2.1978617e-38 2.3536265e-38 1.5940134e-22 -1.8893023e-09 2.063932e-39
-1.9005452e-38 -1.77449e-40 -2.1782123e-06 -2.2022011e-38 1.8329409e-19 -4.9974457e-38 5.511583e-39 -4.041762e-38
3.1635343e-06 2.1356181e-19 -1.4276852e-08 -2.1391758e-08 -3.9648647e-38 -5.816413e-38 6.190209e-38 6.819649e-38
2.1023245e-38 -2.9235548e-38 4.957493e-11 3.5515674e-38 -1.5409963e-38 2.582055e-38 -8.461784e-26 2.9864563e-38

conv2.bias f4 [32]
00000000: 893e a6b9 be7f 949b 713e c03e 0bae afb5
00000010: 844d 1a3e 943c 4ba3 2b44 84b9 c0bb 05bc
00000020: d818 753e 5429 9abc def0 8cbc 8b20 b23a
00000030: ea55 5e99 4cfc a3a7 0350 77b6 6623 b2ba
00000040: 8eb2 e2bc 9557 3abb c1ac 413e e61d 83a9
00000050: 58c1 69ba a36b b1bb 270b 41af 8082 6fbc
00000060: 7861 27b1 244d 893e 12f5 38bc 9839 8aba
00000070: d577 babc 7178 d7ba cc07 83bd 74fd ddba
-0.0003170858 -2.4567098e-22 0.3754764 -1.3089169e-06 0.15068632 -1.101748e-17 -0.0002522779 -0.008162439
0.23935258 -0.018818535 -0.017204698 0.0013590021 -1.1494481e-23 -4.551513e-15 -3.685244e-06 -0.0013590872
-0.027673032 -0.002843355 0.18913557 -5.822755e-14 -0.0008917055 -0.0054144426 -1.755721e-10 -0.014618516
-2.4357103e-09 0.26816666 -0.011288898 -0.0010545729 -0.022762218 -0.0016439093 -0.063979715 -0.0016936497

conv3.weight f4 [1, 32, 5, 5]
00000000: 0a9a a036 02bf 9336 7366 9936 e814 ab36
00000010: 1740 c536 3889 9936 e7ec 8e36 4899 9236
00000020: 53c2 a236 6a22 bc36 96b2 8f36 64c6 8636
00000030: 8fcb 8636 5e9e 9436 7981 ae36 fc16 9136
00000040: 85b1 8636 32f4 8536 e4bd 9036 cc30 a836
00000050: db11 9536 9bd9 8836 e7b8 8736 ccd3 9036
00000060: 931a a536 c814 b380 1bc9 aa80 d2d3 a980
00000070: 015e 9180 7a28 8280 ed52 a280 8790 9d80
00000080: 7092 a080 efdc 9480 f934 7780 5755 a580
00000090: 8aa6 8780 9fd6 9080 dcc0 8380 26fe a480
000000a0: d948 9480 1932 7f80 e58c 8080 a955 7a80
000000b0: 1a92 7780 5088 7580 f755 7480 bee3 7c80
000000c0: 456f 7e80 7f49 9380 cc95 04bc 4291 c43d
000000d0: 1c48 fd3c 3171 003e 72a3 933d c721 82bd
000000e0: 19a6 6b3d 3258 67bd 01dc 6cbe a42f fc3d
000000f0: 5c72 323e 993c 21be ec90 92be b21a 24be
00000100: 5e5d 0a3e 4d3a 463e 293b 7fbd 8f00 70be
00000110: d8bc 4abd 59e6 ee3b 4f94 77bd 04c7 f03c
00000120: 1646 323e 4b62 e83d 9d5a 0d3d 94af f730
00000130: 2e5d df2f 5c39 5eb1 9f34 83b1 eca0 9231
00000140: 01c8 f031 85eb 0232 b49c 642e 8429 80b1
00000150: fc42 36b0 47e0 4731 59f9 3d31 ca00 102e
00000160: 9b77 81b1 d3a3 47b1 00ec 8cb0 5892 a5b0
00000170: 3cb2 1930 da8c 5db0 c6aa 08b1 c370 aab0
00000180: e534 adb0 7b0f 1230 5c04 e62f f8c9 2ab0
00000190: 515e 5f3d e733 f43d 2245 073e 592a 5a3c
000001a0: b443 2dbd 745c 163d 30fd a3be 0fde 41be
000001b0: 2773 5d3a 9253 e13c 5dbf 5e3e 734d e3bd
000001c0: e041 3c3d 9db9 c4bd e615 ec3d 55a6 983d
000001d0: a7d3 8dbd bf57 8bbc 77bc 82bd c2e7 303c
000001e0: ffbd afbd 45c3 c53d aec3 ba3d 2402 f23d
000001f0: 508d 12be 8a7b b201 9723 af01 3ec2 ae01
00000200: 1234 9001 97e1 5d01 56e0 b401 aa0b b501
00000210: 3de0 ba01 8a39 aa01 e38e 8c01 b60f a201
00000220: baac a401 8b94 9c01 8d9a b301 c4e7 9701
00000230: 820c 8501 107a a001 5455 9e01 aa62 b401
00000240: 6723 a301 3a23 9401 44c1 9f01 d709 b501
00000250: 9858 9e01 745f 8d01 0692 1eb5 4858 e5b4
00000260: 14b0 a9b4 b911 b0b4 94fa e7b4 1df6 fdb4
00000270: 6205 9fb4 d761 48b4 3356 6fb4 4ed9 c5b4
00000280: ee53 e5b4 b3f6 7eb4 2d87 0db4 d7ca 35b4
00000290: 2be0 a8b4 610c f7b4 bb05 9ab4 6bdb 4bb4
000002a0: 7f4e 6eb4 79c5 b7b4 274d 10b5 c8ac d4b4
000002b0: b825 a7b4 517d b2b4 b320 dfb4 cd55 a13a
000002c0: 787e f33a d6fb 283b 6af6 453b c355 3f3b
000002d0: aadc 563a 757c c23a 1597 183b 2efd 3f3b
000002e0: 4dbc 413b 1495 053a 7087 973a f43e 063b
000002f0: 90d0 303b d88a 3a3b 7e90 8839 47d9 6f3a
00000300: 522e e73a 094a 1f3b 3801 2c3b a23a 2039
00000310: 0cda 503a e63d cd3a f9fb 0c3b 4a79 173b
00000320: 26a8 38bd 9ce7 87bb a26c 053e 152d dc3d
00000330: 27be 2dbe 1563 733b 3a61 f7bd c063 f93d
00000340: 2294 80bd 396d 7dbd bfeb 763e 53c2 9abd
00000350: ed04 61be c8ad 5d3b 9f94 513e dd82 83bd
00000360: ba13 0abd 98b4 48be adec 65bd 38b3 bf3d
00000370: ec2b 42bd af85 da3d 3314 3d3e eb47 40bc
00000380: afb3 19bd 55ba 293b 8d5f 2b3b aa85 323b
00000390: c00f 353b 5ecf 303b 3216 293b f618 2d3b
000003a0: f34d 343b d642 333b 4318 2d3b 1b00 293b
000003b0: 7552 2d3b b1c5 333b 9238 323b 30cb 2c3b
000003c0: 92e9 263b bf7a 283b 285b 2c3b 71bf 293b
000003d0: 4243 263b 8b40 243b 10f2 213b b2ee 243b
000003e0: 6274 233b ec8a 213b 53f6 2f3c f065 2e3d
000003f0: 730a 96bc d6a5 483d 5076 fdbc 62e7 8abc
4.786304e-06 4.4031776e-06 4.571682e-06 5.098631e-06 5.8785186e-06 4.5757297e-06 4.259509e-06 4.3689834e-06
4.8505985e-06 5.606843e-06 4.2825222e-06 4.016607e-06 4.0172085e-06 4.42918e-06 5.2006767e-06 4.3240125e-06
4.014177e-06 3.992137e-06 4.3136406e-06 5.012471e-06 4.4426247e-06 4.0784485e-06 4.044839e-06 4.316191e-06
4.920477e-06 -1.6446009e-38 -1.5684177e-38 -1.5596186e-38 -1.3349869e-38 -1.1953135e-38 -1.4907099e-38 -1.447002e-38
-1.4746211e-38 -1.367091e-38 -1.0947427e-38 -1.5183471e-38 -1.2457535e-38 -1.3301303e-38 -1.2099635e-38 -1.5152193e-38
-1.3617786e-38 -1.168108e-38 -1.1805487e-38 -1.123466e-38 -1.0980835e-38 -1.0793653e-38 -1.0683756e-38 -1.14693e-38
-1.1611189e-38 -1.3526183e-38 -0.008092355 0.09598018 0.030918173 0.12543179 0.07208909 -0.06354099
0.05753145 -0.056480594 -0.231308 0.12313774 0.17426437 -0.15745772 -0.28626192 -0.16025808
0.1351218 0.19358177 -0.06231228 -0.23437713 -0.0494965 0.007290643 -0.060444172 0.029391773
0.17409548 0.11346873 0.034510244 1.8021518e-09 4.0629672e-10 -3.2337857e-09 -3.818584e-09 4.267454e-09
7.007657e-09 7.620547e-09 5.198038e-11 -3.73001e-09 -6.6306405e-10 2.9085798e-09 2.7644858e-09 3.274251e-11
-3.7679917e-09 -2.9051435e-09 -1.0253416e-09 -1.2046923e-09 5.591436e-10 -8.0599494e-10 -1.9887678e-09 -1.2401177e-09
-1.260244e-09 5.313649e-10 4.1839854e-10 -6.2132655e-10 0.054533307 0.11923962 0.13209966 0.0133157605
-0.042300895 0.036709264 -0.32029104 -0.18932365 0.000844764 0.02750567 0.21752687 -0.11098757
0.04596126 -0.096057154 0.11527614 0.074536 -0.06925135 -0.017009614 -0.06383603 0.010797443
-0.08581161 0.09656385 0.09119354 0.118168145 -0.14311719 6.5564143e-38 6.4335916e-38 6.419623e-38
5.2971963e-38 4.0753142e-38 6.6443464e-38 6.6505636e-38 6.8647375e-38 6.25307e-38 5.163291e-38 5.9531946e-38
6.0491936e-38 5.75185e-38 6.5975985e-38 5.5801207e-38 4.887443e-38 5.894987e-38 5.8162473e-38 6.6263133e-38
5.9927543e-38 5.441716e-38 5.86847e-38 6.650302e-38 5.816716e-38 5.193219e-38 -5.907208e-07 -4.2718807e-07
-3.1606817e-07 -3.279545e-07 -4.3209423e-07 -4.7303993e-07 -2.9619974e-07 -1.8662045e-07 -2.2289969e-07 -3.685222e-07
-4.271564e-07 -2.3745342e-07 -1.3180825e-07 -1.6930731e-07 -3.1455542e-07 -4.6016342e-07 -2.8688905e-07 -1.8985672e-07
-2.2194034e-07 -3.4230086e-07 -5.375645e-07 -3.9613792e-07 -3.1133618e-07 -3.3246263e-07 -4.156078e-07 0.0012308896
0.0018577119 0.0025784872 0.0030206689 0.0029195405 0.00081963337 0.0014838116 0.0023283411 0.0029295194
0.00295617 0.0005095762 0.0011560749 0.00204843 0.0026979782 0.0028464105 0.00026047596 0.00091495033
0.0017637706 0.0024305603 0.0026245844 0.00015280631 0.0007967062 0.0015658706 0.0021512492 0.0023113065
-0.045082234 -0.004147483 0.13029721 0.10750786 -0.16967069 0.0037137915 -0.12079091 0.12177229
-0.06278254 -0.06187174 0.24113367 -0.07556596 -0.21974535 0.0033825506 0.2046685 -0.064214446
-0.03371022 -0.19600141 -0.056133915 0.09360355 -0.04740517 0.10670029 0.18464737 -0.011735897
-0.037524875 0.0025898416 0.0026149482 0.0027240315 0.0027627796 0.002697907 0.0025800583 0.0026412583
0.0027512282 0.002735307 0.0026412166 0.0025787416 0.0026446853 0.0027431066 0.0027194363 0.0026366226
0.0025468809 0.0025707928 0.002629945 0.0025901461 0.0025369679 0.0025062885 0.002471093 0.0025166688
0.0024941196 0.0024649454 0.010739881 0.042577684 -0.01831553 0.04898628 -0.030940205 -0.016956035
