Bioimaging_data3/model.pth (torch, 34455 bytes, 5 tensors)

conv1.weight f4 [64, 1, 9, 9]
00000000: d6ab 41b4 6162 7db3 1468 9db2 fc2f 72b2
00000010: 9118 31b3 bc7c 4bb4 7df1 4cb4 90bf 12b4
00000020: b8eb 07b4 1888 65b4 d1a2 a7b3 f36d 66b2
00000030: 69dc 6f33 8b06 2d34 82b8 c0b3 2d0d 48b4
00000040: 02cf 0fb4 68b9 eeb3 516a fab4 ab54 41b4
00000050: d5f4 6eb3 aa7e 1b34 6f87 0d35 92af d633
00000060: 7697 15b4 a2a7 ccb3 dbd7 56b3 0a92 4cb5
00000070: a1c5 a6b4 25c6 e532 91ef 2135 fc9d b235
00000080: c907 fc34 b9dc 08b4 1cb3 70b3 c071 e032
00000090: 7e15 3cb5 1422 dcb4 ad88 4c34 7873 5a35
000000a0: 195a a035 43df 0135 7dfd 1db4 e4e3 61b3
000000b0: b0bb c332 6cc4 ecb4 d7f2 8bb4 d0c6 5134
000000c0: 090c 1035 6a89 3435 ac99 8634 a801 b2b3
000000d0: e726 acb2 c17e df32 3e92 bdb4 325e 6db4
000000e0: 1802 e233 2c64 0434 8c27 4033 1099 ffb2
000000f0: 010b 42b3 b8e3 28b2 060e b632 c550 e0b4
00000100: a920 46b4 43c4 f533 cb7e 6233 edf2 05b3
00000110: 7c12 1cb3 9697 26b3 8a41 3bb2 0dee 8032
00000120: 8f5c 41b5 3699 cab4 9c98 40b3 8c37 cab2
00000130: 5950 e731 a883 90b1 2ff5 58b3 67fe 0db3
00000140: f63a a6b1 3305 13bd ec61 53bd d00d 34bc
00000150: d0d3 903d fe4c a83c af1e 8d3d 9dcb 9d3c
00000160: c52d 1d3d a6e9 dabc 9b29 ecba 1eea 8abd
00000170: 5523 0f3d 7f87 8f3d 1cc1 91bc b76f 443c
00000180: 04f8 fb3c de25 ddbc ab07 86bc a44d da3c
00000190: c11b 8c3d 1c18 b53d 35a2 ab3d b76a 27bc
000001a0: 3dfa 133e c247 753d 731a 2dbd 849c 2b3d
000001b0: 986e ae3d 460b 14bd e1ea b03c 3c91 1e3d
000001c0: 3710 2c3e 25a8 463d 8bd4 493d 9110 57bc
000001d0: f04a 9f3d 8c27 aa3d e79a 28bd 296c b73d
000001e0: eee8 033e 88b3 093e 8c51 1c3e 3fb6 b83d
000001f0: b211 1d3d 461d 283d c5eb 873d 7b23 a13c
00000200: e1c7 443d 7eec 2c3e 497a c43d 0310 f53d
00000210: 2e19 1c3e 76ec 693d 2531 9e3d 67d7 2d3a
00000220: 860e 823b 0349 363d e764 423d 10bf 083e
00000230: b06f fe3d 158d bd3d 3b22 953d 7cd3 fa3c
00000240: 3210 853b 701e 61bc 165a 6ebb 68d1 9e3a
00000250: 666b 6b3d 8d7b 63bc bfe5 3a3d 186c 583d
00000260: 1458 533c c9a3 d2bc 1801 033d 92a6 6d3d
00000270: 75ed 2c3d eedc bf3a 6e7a 5d3b c1ce 833c
00000280: 743f a4bd c1ed 7cbd e3bd 80bd 8863 6abc
00000290: 7d72 97bd 78df dc3b c9ff 1ebc ca34 59bd
000002a0: 978b 4cbd 17f3 72bd 1db0 2bbd 5e72 90bc
000002b0: 12fc 1bbd 74d0 ad3a 3d88 d7ba f1d9 ddbc
000002c0: 0e4b 4dbc 5417 71bc b67d 9d3b f12d 04bd
000002d0: 3a24 0ebc fb85 633c c534 1abd 853f f23c
000002e0: 9003 553d 7f3e 593c 86d4 76bd 2e4c 9b3b
000002f0: c743 15bd 06bd aa3c 8eb4 dfbc 5817 823d
00000300: aeed 8c3d f66a 343d 5803 08bc 3851 a83c
00000310: 68e9 f2bc cfe8 97bc 7b72 86bb a354 4439
00000320: 9e42 29bd 4a54 b13d e256 a5bc 32dc 2ebc
00000330: 6920 cdbc 7997 2dbc 9d28 cebb 2845 bcbc
00000340: b606 92bc c4fb e5bc 1bb9 a5bc 32b6 03bc
00000350: e00f 483b f831 bd3c f932 ffbc aec0 0cbd
00000360: 035b e9b9 eb15 b93b 6355 293b c54e d2bc
00000370: 4021 6b3c 2059 5bbc 1506 4abd cad5 04bc
00000380: 2544 b43a 02fa b2bb d256 1dbd 055b a6bb
00000390: fe82 4b3b a691 edb9 fcb6 b4bc 03bc 1dbc
000003a0: bda4 1ebc c7c9 67bd 2923 5cbd b504 f6bc
000003b0: 7bc6 f2bc 1c05 56bd f8b5 093c e16a 73bd
000003c0: 0a69 44bb a563 2ebd 4c59 9dbc 2837 323b
000003d0: c4aa b13c 3c74 393d ec5d 7a3b e1a5 853c
000003e0: 3bd7 cebb d07d efbc 87ac e33c c608 46bc
000003f0: 3b24 34bc 767e 30bb 163d 1b3c 2ae8 afbd
-1.8037039e-07 -5.8995628e-08 -1.8324535e-08 -1.4097164e-08 -4.1233367e-08 -1.8951226e-07 -1.9086833e-07 -1.3667e-07
-1.2658609e-07 -2.1376798e-07 -7.8061596e-08 -1.3412762e-08 5.5846986e-08 1.6114261e-07 -8.9742585e-08 -1.8631245e-07
-1.3393222e-07 -1.1116464e-07 -4.6643484e-07 -1.8005328e-07 -5.5636367e-08 1.448158e-07 5.2723675e-07 9.9970876e-08
-1.3931808e-07 -9.5299825e-08 -5.0022077e-08 -7.6208437e-07 -3.1063703e-07 2.6749214e-08 6.032579e-07 1.3308013e-06
4.6944322e-07 -1.2746285e-07 -5.6042254e-08 2.612876e-08 -7.0066733e-07 -4.1002988e-07 1.9048703e-07 8.137936e-07
1.1947151e-06 4.8381133e-07 -1.4713983e-07 -5.259416e-08 2.2786338e-08 -4.410134e-07 -2.6067457e-07 1.953697e-07
5.3661694e-07 6.725519e-07 2.5071256e-07 -8.289072e-08 -2.0041126e-08 2.6018258e-08 -3.5310399e-07 -2.2106613e-07
1.0524326e-07 1.23299e-07 4.473945e-08 -2.9755512e-08 -4.5179153e-08 -9.830664e-09 2.1193966e-08 -4.178202e-07
-1.8452069e-07 1.1444401e-07 5.2735043e-08 -3.1187415e-08 -3.6338392e-08 -3.8787753e-08 -1.08997344e-08 1.5009414e-08
-7.2032793e-07 -3.7736908e-07 -4.484228e-08 -2.3541155e-08 6.7321193e-09 -4.205919e-09 -5.0514412e-08 -3.30605e-08
-4.837939e-09 -0.03589363 -0.051607057 -0.010989621 0.0707165 0.020544525 0.06890618 0.01926213
0.038373727 -0.02672274 -0.001801777 -0.067829356 0.034945805 0.07008266 -0.017792277 0.0119895255
0.030757912 -0.026995596 -0.016361078 0.02664835 0.06841231 0.08842489 0.08380548 -0.010218314
0.14450927 0.059882887 -0.042261552 0.04189731 0.08517188 -0.036143564 0.021596374 0.038712725
0.1680306 0.0485002 0.049274962 -0.013126508 0.07777965 0.08308324 -0.04116335 0.08956177
0.12881824 0.13447392 0.15265483 0.09019136 0.038346954 0.041043542 0.06636766 0.019670239
0.048042182 0.1688709 0.095936365 0.119659446 0.1524398 0.057110272 0.07724217 0.0006631524
0.0039690165 0.044503223 0.04745951 0.13354135 0.124236465 0.09255425 0.072819196 0.030618422
0.0040607685 -0.013740167 -0.0036369613 0.0012116851 0.05747547 -0.013884437 0.04562926 0.05283746
0.012899417 -0.025712864 0.031983465 0.058020182 0.042218644 0.0014637986 0.0033794898 0.016089799
-0.08019915 -0.061750177 -0.06286218 -0.014305957 -0.07394884 0.0067405067 -0.009704539 -0.05302886
-0.04993781 -0.05931386 -0.041916 -0.01763266 -0.03808219 0.0013260976 -0.00164438 -0.027081462
-0.012530101 -0.0147150345 0.0048062457 -0.032270376 -0.008675629 0.013886924 -0.03764798 0.029571304
0.05200535 0.013259529 -0.060261272 0.004739306 -0.03644159 0.020842087 -0.027307775 0.06352109
0.06881271 0.04404732 -0.008301578 0.02054654 -0.029652312 -0.018543629 -0.0041030026 0.00018723546
-0.041323297 0.08658655 -0.02018303 -0.010672616 -0.025039868 -0.010595196 -0.0062914626 -0.022982195
-0.017825466 -0.028074153 -0.020229867 -0.008039044 0.003052704 0.023095116 -0.031152235 -0.03436344
-0.00044509032 0.005648365 0.0025838248 -0.025672326 0.014351189 -0.013387948 -0.049322207 -0.008107612
0.0013753219 -0.005461932 -0.038412876 -0.0050767683 0.003105342 -0.0004531268 -0.02205991 -0.009627345
-0.009682831 -0.056588914 -0.05374447 -0.030031541 -0.029635658 -0.052250966 0.008405201 -0.0594281
-0.0029969835 -0.042575497 -0.01920762 0.002719352 0.021687873 0.045276865 0.0038202954 0.016314449
-0.0063122786 -0.029234797 0.027792228 -0.012087053 -0.010994966 -0.0026930845 0.009475013 -0.08589204

conv1.bias f4 [64]
00000000: 7229 27ba c166 b7bd a927 2dbe bbd9 493e
00000010: 6623 3bbc 9f58 8bbd 8761 7b9c 14cd a0bd
00000020: e105 69bb 0745 903e c98f 373d 0d4f 7eb4
00000030: 8d6d 989e 014d 393e c15b d43d 6499 3dbd
00000040: f781 64bd 0897 70bd 2512 e5a9 fc1e 2bbd
00000050: 95ca febd dfcc 0dbd 957b 9bb5 4db1 82bd
00000060: ab2b 1fbb c3d6 cebd 6f7c fbb9 9df4 feb4
00000070: f682 a5b6 ac0f 8cbd 7d00 07a5 6f8a d0ba
00000080: c4ff 06bd 209c 75bd cc46 86b7 dc8a 0bbe
00000090: d177 a1af 5ed8 d0bc b595 a1bd 1625 57bd
000000a0: 4dcc d0b4 4683 f03c 8fe0 c4bb ff9f ffbd
000000b0: 29b1 143e c95e 83bc f308 ad3e d335 ffba
000000c0: 20bb a3ba 97d8 543e e399 a58f 452b f7bc
000000d0: de60 c13d a76f 823e 46b1 193e d6b2 24be
000000e0: 51a0 f73e e08c 8ebd 49c0 d3b2 8c0d d0ae
000000f0: e8ce c2ba 69b6 bcb8 0365 99bd eee5 96bd
-0.000637672 -0.089551456 -0.1690966 0.19711964 -0.011422014 -0.068040125 -8.3174985e-22 -0.078516155
-0.0035556483 0.28177664 0.04481486 -2.3684352e-07 -1.6138935e-20 0.18095781 0.10369063 -0.046288863
-0.055788007 -0.058737785 -1.01727905e-13 -0.041777596 -0.12440983 -0.03461921 -1.1584367e-06 -0.06381474
-0.0024287503 -0.10099556 -0.0004796716 -4.7489166e-07 -4.932629e-06 -0.06838927 -1.1709549e-16 -0.0015910397
-0.03295876 -0.059963346 -1.6007012e-05 -0.1362719 -2.9370864e-10 -0.025493797 -0.078898825 -0.052525602
-3.8891667e-07 0.029359471 -0.006008215 -0.12481689 0.14520706 -0.016036408 0.3379589 -0.0019470997
-0.0012491681 0.20785747 -1.6329531e-29 -0.030172 0.09442304 0.2547581 0.1500903 -0.16083845
0.483645 -0.069604635 -2.4651074e-08 -9.461151e-11 -0.0014862688 -8.998515e-05 -0.074899696 -0.07368074

conv2.weight f4 [32, 64, 1, 1]
00000000: c53d 0080 892c 2abc 4191 7eba ac44 79ba
00000010: ea49 0480 408b 1480 863c 0780 d661 23bc
00000020: afee 0300 49d1 06ba 4587 5eb9 9f09 0c00
00000030: a84c 0e80 38ae 8bba d9dd 0100 8753 0080
00000040: 709a 0680 32d9 0780 728c 0a00 3e46 0a00
00000050: 0def bcbb 3c61 0c00 8f46 0680 e878 0780
00000060: 8a5f 0b80 a299 1180 968a 0000 cf1e 1580
00000070: a854 0b00 8378 0b80 bc30 1480 efd9 0c80
00000080: f63b 2ebb 14b1 0400 2134 0800 0cb3 47b1
00000090: 8268 0c80 fd67 0500 ad47 0080 a63d 0b80
000000a0: 2e77 0000 c8b4 a8b8 e7c0 0200 6464 debb
000000b0: 05a5 5096 6214 0580 3075 8fba 6158 0180
000000c0: f8d4 0500 df39 03bb 1d96 0300 a433 0b80
000000d0: c783 0600 a915 c2ba 4a91 75ba e8d1 1cbc
000000e0: 1d6b 26bb 2472 1000 1eab 1180 db00 0400
000000f0: 3ae5 0100 0f2c 0980 84ad adbb d218 0700
00000100: e51e 31b8 06c2 16bc 80c2 ddbc 09ce 46be
00000110: 3177 62ba 8822 15ba 0d77 7d80 9f80 38be
00000120: e8cc 4db5 9a1f 073e 7da6 b7bd 0a41 0034
00000130: 1c86 e316 0fc0 183e 83d7 aa3d e246 03bc
00000140: bd8b 213d 8a4b 3cbd 5a24 3630 1b5a 563c
00000150: 77d1 783c bd81 fc3c 4953 3c35 e2bf 41bd
00000160: d6aa d3b7 f0e9 7e3c 154c ae38 ecf5 e8b3
00000170: 4b08 edb3 cb22 403b 5159 0700 529c 94b9
00000180: 01d7 20bc 4d62 e83a 77a5 63b7 0a52 a53c
00000190: b44f 21a7 8655 a33c 9829 b8bc 5f3f 403c
000001a0: 3f7c 41b1 3a70 1f3c f167 e0b8 3538 8a3d
000001b0: 8681 6fbc ccc6 7e38 7cce 5a3c e2cf dfb9
000001c0: 0d92 a138 cf28 99bd 02e5 0500 c702 753c
000001d0: 1ee6 d73d ab75 b03e 50b6 d33d bff8 153c
000001e0: 0d9d ae3d c576 36be 4b9d d6af 0a01 e235
000001f0: f63e 6cb9 a496 9a37 2e36 803c 2eda fe3c
00000200: 5379 0a00 8e48 3abc b03b 02b8 cfc2 80b8
00000210: 0c10 0800 caf9 0500 09a2 1400 a625 29bc
00000220: 70d8 0700 30a8 3eb6 53c1 67b0 f19d 1280
00000230: 8a89 0880 f4ec 03b9 2ec5 0400 fbe4 0600
00000240: 4c83 0180 6ffc 0300 6bd5 0f80 d033 0380
00000250: 84b6 43bb 20fc 1480 74ad 0e00 e2a1 0780
00000260: f66a 0c00 8908 0300 db07 0780 553c 1380
00000270: dfa6 0500 9630 0180 6005 1100 5908 0080
00000280: a097 3aba d933 0100 2e8d 0080 13ff bfa9
00000290: 3a65 0480 dfdb 1180 4e98 1080 25d3 1480
000002a0: ffa4 1300 8bd5 16b6 6359 0980 c8b2 89bb
000002b0: b882 0080 92d4 0580 333b 86b9 a03e 0400
000002c0: 3501 0600 9a3f 9bb9 90e0 0a00 fa2e 0b80
000002d0: c402 0380 f07e 8bb9 abce 78b9 5c6e 19bc
000002e0: 73dc 2fba d081 1300 70ab 0100 649a 0980
000002f0: d862 0f00 7114 0080 0fd4 19bb a51d 0600
00000300: e2dc 0680 2013 51bc f4c9 5dbb ead8 1bbb
00000310: 13ad 0f00 582f 0600 15c2 1500 bc5b 4cbc
00000320: ddce 0c00 051c 00bb e5cb 17bb 16ef 0480
00000330: 69ba 0280 6bfc 2bbb 3c5b 0700 75d3 0f80
00000340: 779e 1380 3cf7 0300 a1ee 0a00 aa1f 0100
00000350: f21d 1dbc ac6b 0080 e90c 0780 4695 bea5
00000360: 5463 0d00 251b 0680 7aa4 1100 dba9 0080
00000370: 0e5e 1000 9907 0300 5041 0100 396e 0600
00000380: 5304 e9bb 27f1 0f00 a839 0000 ba21 39a8
00000390: e158 0080 41d6 0300 0146 0a00 005d 0b80
000003a0: 0bb7 0b80 f4f6 2bbb 6332 1480 3cd9 29bc
000003b0: 1629 3222 bec5 0b00 26d6 8abb 11b0 1380
000003c0: d797 1300 8ce0 8ebb eba6 0a80 a441 0800
000003d0: b32f 1100 a6a6 94bb cbda 9dbb f701 49bc
000003e0: 097a babb d560 0c00 b943 1100 85ff 1380
000003f0: a486 0700 51fd 0600 f5d1 13bc 2791 0780
-2.2159e-41 -0.010386595 -0.00097109756 -0.0009508829 -3.93857e-40 -1.886663e-39 -6.6456e-40 -0.009972056
3.6113e-40 -0.000514288 -0.00021221962 1.105477e-39 -1.313196e-39 -0.001065678 1.7142e-40 -2.9964e-41
-6.06415e-40 -7.20763e-40 9.68737e-40 9.43553e-40 -0.0057658018 1.136907e-39 -5.76325e-40 -6.86221e-40
-1.044463e-39 -1.616317e-39 4.9715e-41 -1.939597e-39 1.04056e-39 -1.053422e-39 -1.854193e-39 -1.180206e-39
-0.0026586032 4.30866e-40 7.53384e-40 -2.9060088e-09 -1.139516e-39 4.96481e-40 -2.5712e-41 -1.032306e-39
4.2754e-41 -8.0445374e-05 2.52871e-40 -0.00678687 -1.6854177e-25 -4.6649e-40 -0.0010944959 -1.2354e-40
5.35576e-40 -0.0020023508 3.29357e-40 -1.028716e-39 5.98286e-40 -0.0014807481 -0.0009367658 -0.00957153
-0.0025393434 1.510314e-39 -1.622589e-39 3.67649e-40 1.74066e-40 -8.42325e-40 -0.0053002257 6.51752e-40
-4.222886e-05 -0.009201532 -0.027070284 -0.19414534 -0.0008638977 -0.00056890445 -1.1522144e-38 -0.18017815
-7.666663e-07 0.13195649 -0.08967302 1.194459e-07 3.6758463e-25 0.14917015 0.08341887 -0.008012505
0.039439905 -0.045970477 6.6262873e-10 0.013083006 0.015186659 0.030823583 7.0156653e-07 -0.047302134
-2.5232712e-05 0.015558705 8.311138e-05 -1.0848075e-07 -1.1037681e-07 0.0029317613 6.74889e-40 -0.00028345227
-0.009816886 0.0017729491 -1.356878e-05 0.02018072 -2.2386446e-15 0.019938242 -0.022480771 0.011733859
-2.8155822e-09 0.009731347 -0.00010700513 0.06749002 -0.014618283 6.0743463e-05 0.013354894 -0.0004268876
7.704282e-05 -0.07478487 5.4133e-40 0.014954275 0.10541938 0.34464774 0.10337508 0.009153544
0.08526049 -0.17818744 -3.9038137e-10 1.6838615e-06 -0.00022530169 1.8428378e-05 0.015650835 0.031109896
9.61878e-40 -0.011369837 -3.1050004e-05 -6.1398016e-05 7.4044e-40 5.48785e-40 1.894837e-39 -0.0103239175
7.20492e-40 -2.8410104e-06 -8.431204e-10 -1.709698e-39 -7.84024e-40 -0.00012581405 4.38077e-40 6.33156e-40
-1.38936e-40 3.66063e-40 -1.454092e-39 -2.94093e-40 -0.0029863426 -1.927155e-39 1.34792e-39 -7.00921e-40
1.140396e-39 2.78568e-40 -6.45666e-40 -1.766517e-39 5.1904e-40 -1.09265e-40 1.563132e-39 -2.995e-42
-0.0007117931 1.10435e-40 -5.0646e-41 -8.526352e-14 -4.03655e-40 -1.640078e-39 -1.524005e-39 -1.912454e-39
1.804064e-39 -2.247604e-06 -8.58585e-40 -0.0042022206 -4.6893e-41 -5.35433e-40 -0.00025602579 3.89808e-40
5.51446e-40 -0.0002961129 9.98913e-40 -1.027042e-39 -2.76499e-40 -0.00026606722 -0.00023728113 -0.009364691
-0.00067085697 1.791442e-39 1.53336e-40 -8.81904e-40 1.412991e-39 -7.333e-42 -0.0023472344 5.61647e-40
-6.30251e-40 -0.012760907 -0.0033842297 -0.0023780414 1.43962e-39 5.67997e-40 1.998169e-39 -0.012473043
1.176235e-39 -0.001954795 -0.0023162302 -4.5311e-40 -2.50542e-40 -0.0026242982 6.75577e-40 -1.453389e-39
-1.801721e-39 3.64197e-40 1.003959e-39 1.03194e-40 -0.009589659 -3.8625e-41 -6.4748e-40 -3.3060898e-16
1.229494e-39 -5.6075e-40 1.620207e-39 -6.0933e-41 1.503108e-39 2.78232e-40 1.15265e-40 5.90553e-40
-0.007111111 1.464042e-39 2.0683e-41 -1.0276876e-14 -3.1884e-41 3.52366e-40 9.43468e-40 -1.043553e-39
-1.075854e-39 -0.0026239725 -1.854785e-39 -0.010366734 2.414525e-18 1.081127e-39 -0.0042369543 -1.808035e-39
1.799344e-39 -0.004360264 -9.78234e-40 7.58231e-40 1.578315e-39 -0.0045364676 -0.004817342 -0.012268535
-0.0056908173 1.136763e-39 1.585498e-39 -1.836538e-39 6.91148e-40 6.41886e-40 -0.009022226 -6.9492e-40

conv2.bias f4 [32]
00000000: b51b aabb ba27 933e 0ec8 19bb 8a44 04bc
00000010: cea4 ddb0 25f1 d4ba 387d 173e fadc 23b6
00000020: 5e55 ceaf 4b0a afac 6bbb 87bb cb58 88b8
00000030: b2f3 d23c d2e9 5d3e a366 be3e ad6a 813e
00000040: c93d 3dae 24f0 fba2 2db4 cdb8 a486 babc
00000050: 7682 1d3c bd97 f6bc e079 75af e736 41ab
00000060: 4018 a2b1 5ccf 37b3 2046 ae3d b157 05bc
00000070: 86a7 1fbb 0a6b 6db8 5fae 38bc 5d54 8fbc
-0.005191291 0.28741246 -0.002346519 -0.008072982 -1.6126707e-09 -0.0016246183 0.14793861 -2.4417518e-06
-3.753184e-10 -4.974942e-12 -0.004142215 -6.501524e-05 0.025750969 0.21671227 0.3718768 0.252767
-4.30285e-11 -6.8287945e-18 -9.808722e-05 -0.02276928 0.009613624 -0.030101651 -2.2325919e-10 -6.8643566e-13
-4.7175774e-09 -4.27966e-08 0.08509469 -0.008138583 -0.0024361326 -5.660489e-05 -0.011272042 -0.017496282

conv3.weight f4 [1, 32, 5, 5]
00000000: 36cb 3fbb 98c5 39bb d94d 38bb 7960 3cbb
00000010: d4a3 40bb 5e11 40bb 447c 39bb 99ca 38bb
00000020: 7a88 3cbb 4d83 41bb f12d 3dbb 63d1 36bb
00000030: 5625 37bb 3ff9 39bb 1ca3 3ebb 69e2 39bb
00000040: 4eae 34bb 471e 36bb 9c7f 39bb b86f 3cbb
00000050: d5f2 37bb 04c9 34bb ac17 36bb 3856 39bb
00000060: 6fd0 3abb 853e 7bbc 1adf 143e 74a2 833d
00000070: 24f4 a5bd 1830 303c 4076 6f3c 9a54 ecbd
00000080: d410 02bc 8542 b33c a91b dcbb 7269 023e
00000090: 234b 54be 3dd2 b8bd 7774 8c3d 6a94 8abb
000000a0: f298 a63d b0fe 4fbe d15c 2cbe 13c2 00be
000000b0: b985 9d3d e72b 3f3e 17f4 dc3d 236e 8f3d
000000c0: 5a94 8fbd 4b91 be3d 6d54 6dba 432a 6dba
000000d0: 52d4 68ba 8aa3 5fba 1097 54ba 9e15 6aba
000000e0: e692 6cba 2756 69ba cbf8 5fba f85d 53ba
000000f0: d60d 64ba ab68 68ba 3801 66ba c1d8 5dba
00000100: e233 51ba 112e 5bba 13d1 5fba 2459 5eba
00000110: cf09 58ba 5fd0 4cba 4c3d 52ba fea7 55ba
00000120: ec93 54ba c2ca 4eba fe1f 45ba 9e37 cdbb
00000130: ddab cdbb 7284 cdbb 59ca ccbb dfba cbbb
00000140: 899d cebb 352a cfbb b903 cfbb 090d cebb
00000150: 04d9 ccbb 9c45 d0bb aacb d0bb 48a0 d0bb
00000160: ba9b cfbb 0b45 cebb 0dcc d0bb 1338 d1bb
00000170: 6215 d1bb b32a d0bb bab9 cebb df74 d0bb
00000180: 34d8 d0bb 79b4 d0bb 9de8 cfbb 017d cebb
00000190: 0a9a 0780 0985 0380 8961 0700 bc9e 0580
000001a0: 7f3e 0600 a17e 0600 3dd0 0180 d201 0780
000001b0: 709d 0700 fd96 0680 1846 0100 bef1 0480
000001c0: 7976 0680 1f5c 0400 8765 0200 3ae2 0680
000001d0: d6a6 0080 b6ed 0400 bb21 0600 ca11 0280
000001e0: c95b 0000 4918 0200 26d0 0200 00e7 0780
000001f0: de54 0400 8b8d af3a ed10 af3a 7af8 ae3a
00000200: caf3 ae3a d5bd ae3a 3532 ae3a 320c ae3a
00000210: 292d ae3a 5309 ae3a f98f ad3a bfd1 ad3a
00000220: f7ac ad3a e291 ad3a 653d ad3a 6fbf ac3a
00000230: c483 ad3a c50e ad3a e0c9 ac3a 0a90 ac3a
00000240: 8d3b ac3a ccab ad3a 55f9 ac3a 05b6 ac3a
00000250: ce88 ac3a c659 ac3a 5542 08be ac39 8f3d
00000260: 4748 0c3e a2aa 303d f719 70bd 264b 883d
00000270: 2346 02bd 5a92 89be d044 85bd 5eaf fc3d
00000280: ad57 893d fae0 ac3c 38c3 a03b e6c1 e5bd
00000290: 1ef3 4c3e a1e8 823d 27f6 823d f95e ad3b
000002a0: 90ca b43a 29c3 2fbe 63cf 0bbc 4389 2fbd
000002b0: 7f2a 33bd 038b 0c3e fc37 b4bd 5761 d6b2
000002c0: ef52 e5b2 0332 e3b2 a2d8 e4b2 6efa d9b2
000002d0: aa9e e1b2 8c3f e9b2 e1f4 e4b2 a957 e8b2
000002e0: 47df deb2 c24e e0b2 cd39 e2b2 e086 deb2
000002f0: f29d e2b2 de2e d7b2 aaf0 cfb2 0f74 cfb2
00000300: aef6 d0b2 89c2 d3b2 efcd c7b2 3967 b3b2
00000310: 7909 b6b2 b659 b7b2 17cd b6b2 ad15 adb2
00000320: 87fc 9998 74d0 3798 eaea 0d98 e3fd 0298
00000330: 1cf4 0f98 4072 8498 7bab 2f98 1a14 0398
00000340: 2a2e da97 065d e197 960e 6198 70b8 1198
00000350: 1761 ca97 0458 9b97 f5e9 9f97 b31a 3f98
00000360: 8fbe f997 9c49 9e97 29b4 7b97 5b41 8d97
00000370: 506a 2798 5f00 e397 b8d2 8197 ca23 4597
00000380: 9e10 7397 2a5a 0780 2d79 0700 7124 0280
00000390: 5049 0500 d53f 0400 4d33 0780 6d32 0480
000003a0: 82cb 0180 797e 0480 88b3 0380 4b1e 0700
000003b0: 5049 0700 7618 0880 cb73 0380 e0c2 0100
000003c0: bdd2 0380 41ac 0680 ce21 0680 35db 0780
000003d0: 8c49 0200 51d0 0700 abbe 0100 f5c4 0780
000003e0: e2c4 0380 b4dd 0780 4d96 3f39 56f4 4139
000003f0: 1af9 4439 ef20 2b39 340e 2b39 12d7 3d39
-0.002926541 -0.0028346535 -0.0028122573 -0.0028744026 -0.0029394524 -0.0029307227 -0.0028302828 -0.002819693
-0.002876787 -0.0029527724 -0.0028866495 -0.00278958 -0.0027945838 -0.0028377322 -0.002908892 -0.002836371
-0.0027569714 -0.0027789043 -0.002830482 -0.0028753113 -0.0028068323 -0.0027585635 -0.0027785106 -0.002828015
-0.0028505584 -0.01533473 0.14538231 0.0642747 -0.08103207 0.010753654 0.014615595 -0.11539574
-0.007938582 0.021882305 -0.0067171645 0.12735537 -0.20731787 -0.09024475 0.068581514 -0.004229118
0.08134641 -0.20312 -0.16832282 -0.12574033 0.07691521 0.18669091 0.10788744 0.07003429
-0.07010718 0.09305056 -0.0009053413 -0.000904713 -0.0008881736 -0.0008531144 -0.0008109668 -0.0008929613
-0.0009024575 -0.00089010823 -0.0008543848 -0.00080630137 -0.00086995715 -0.00088656944 -0.00087739853 -0.000846278
-0.00079804484 -0.00083610514 -0.00085379294 -0.0008481911 -0.00082412077 -0.0007813032 -0.0008019998 -0.0008150338
-0.00081092 -0.00078884896 -0.0007519721 -0.0062627336 -0.006276591 -0.006271892 -0.0062497077 -0.006217345
-0.0063054007 -0.00632217 -0.0063175824 -0.006288175 -0.006251456 -0.0063559543 -0.006371935 -0.0063667633
-0.0063357027 -0.0062948517 -0.006371981 -0.0063848584 -0.006380723 -0.0063527464 -0.0063087614 -0.0063615884
-0.0063734297 -0.0063691703 -0.0063448683 -0.0063015227 -6.98107e-40 -3.2323e-40 6.77837e-40 -5.1612e-40
5.73432e-40 5.96439e-40 -1.66537e-40 -6.43501e-40 6.99326e-40 -6.05177e-40 1.1698e-40 -4.54063e-40
-5.93513e-40 4.00389e-40 2.20092e-40 -6.32168e-40 -5.985e-41 4.52617e-40 5.63113e-40 -1.90053e-40
3.2926e-41 1.92383e-40 2.5834e-40 -7.25716e-40 3.97787e-40 0.0013393624 0.0013356485 0.0013349198
0.0013347801 0.0013331721 0.0013290109 0.0013278781 0.0013288605 0.0013277925 0.001324176 0.0013261362
0.00132504 0.0013242329 0.001321715 0.001317961 0.0013238122 0.0013203254 0.0013182722 0.0013165486
0.0013140306 0.0013250052 0.0013196865 0.0013176805 0.001316333 0.0013149313 -0.13306554 0.06993422
0.13699447 0.043131478 -0.058618512 0.066549584 -0.03180517 -0.2686947 -0.065072656 0.12338136
0.06706176 0.021103371 0.0049060844 -0.11218624 0.20014617 0.06392027 0.06394606 0.0052908626
0.0013793278 -0.17164291 -0.008533332 -0.042855512 -0.0437417 0.13724904 -0.08799741 -2.4957144e-08
-2.6696823e-08 -2.644902e-08 -2.6641207e-08 -2.5376007e-08 -2.62656e-08 -2.7153668e-08 -2.6654051e-08 -2.7048218e-08
-2.5945736e-08 -2.6112847e-08 -2.6336147e-08 -2.5905535e-08 -2.6381688e-08 -2.5050607e-08 -2.4207413e-08 -2.4150749e-08
-2.4326564e-08 -2.4652097e-08 -2.3260297e-08 -2.0885283e-08 -2.1191896e-08 -2.13448e-08 -2.1280853e-08 -2.0149708e-08
-3.980456e-24 -2.3757438e-24 -1.8342424e-24 -1.6930286e-24 -1.860556e-24 -3.4236563e-24 -2.2704795e-24 -1.6941502e-24
-1.4099573e-24 -1.4563767e-24 -2.9087932e-24 -1.8833928e-24 -1.3078453e-24 -1.00388585e-24 -1.0334193e-24 -2.4699651e-24
-1.6139352e-24 -1.0229092e-24 -8.132987e-25 -9.128409e-25 -2.1637918e-24 -1.4669625e-24 -8.3896225e-25 -6.3699305e-25
-7.853851e-25 -6.75193e-40 6.86318e-40 -1.96744e-40 4.85477e-40 3.9024e-40 -6.61252e-40 -3.85431e-40
-1.6484e-40 -4.12712e-40 -3.3991e-40 6.53716e-40 6.69148e-40 -7.43459e-40 -3.17045e-40 1.61743e-40
-3.51105e-40 -6.12806e-40 -5.6314e-40 -7.21485e-40 2.10055e-40 7.17578e-40 1.60234e-40 -7.13503e-40
-3.46135e-40 -7.2238e-40 0.00018271171 0.00018496937 0.00018784814 0.000163201 0.00016313122 0.00018104565
